models/bset_model.pth (torch, 874821 bytes, 32 tensors)

scale1.0.0.weight f4 [64, 5, 3, 3]
00000000: 406f af3d 30e2 893d 97f7 683c d87e a03d
00000010: bb5b 3e3d e60d 2ebc fbbb c73c 1a04 f5bc
00000020: f9a1 57bd 5aa9 19be e152 04be 1ea0 94bd
00000030: 779f ffbd 11f9 e8bd b247 83bd a982 79bd
00000040: e140 5dbd 90a1 9fbc 1680 d13c 725a 0a3c
00000050: a4f7 67bc a9ed a33c b3f4 2fbb 1317 b1bc
00000060: d526 9b3c fb01 47bb 7498 b0bc f783 3fbc
00000070: b8f4 36bc e357 4bbc 06e2 40bc 887c 4ebc
00000080: 899b 64bc 7d0b 6fbc 8846 75bc 0d78 8dbc
00000090: e73b 623d 7ed8 603d 30f9 763d 6ab2 603d
000000a0: 100b 663d a7f3 813d 7ce8 6a3d eb07 6c3d
000000b0: b82a 843d d647 c43d b9bb 0dbe 5c94 8bbd
000000c0: 0dbc 803d 4946 95be bc01 f6bd dcdb 403e
000000d0: 6be0 a63d 47fe a63c 85a5 b8ba 8ef7 89bc
000000e0: 6bf8 41bd 2c48 0e3d 41da 9b3c ac8e c7bc
000000f0: eeae 243d 406d 6c3c d340 f8bc 90d5 963c
00000100: 3d95 b73b b702 3fbc 95b5 373c c900 733c
00000110: 5779 48bc fb02 1b3d b18e 493d e7d8 033d
00000120: 2ce1 843a 724e 213c ebe2 273c 8a3c 02bb
00000130: e151 193c 7333 1d3c 859d 8dbc 8abe 12bc
00000140: c8c0 22bc 9e19 683b 8fd1 7338 6bc6 9c3b
00000150: fa6f 773b 2e60 903b 763e 0b3c 3e29 b2bb
00000160: 330b 9abb f2c3 e6ba c9f6 b03d 8053 013e
00000170: 12c9 80bd ea05 143e 347d 3b3e 5419 a7bd
00000180: 5b45 9abd 4cb1 bfbd cb59 0abe b265 583c
00000190: cfd4 0b3c 2a90 7d3c 9a40 7e3c 3477 453c
000001a0: ae84 b23c a0fc 413c 44ed 723c 3d5d 3b3c
000001b0: e317 533c 81b0 04ba 83cc a3ba df81 0ebc
000001c0: c403 ebbc 60b8 c9bc db7c aabc 34d8 0dbd
000001d0: d5e5 0dbd ed78 2fbc 1edd 3abc 3d80 4d3c
000001e0: 9b24 30bc 6106 e0bb 60a7 5d3c cb3f 30bb
000001f0: c4c3 92ba 45e1 713c 6df5 59bc 2096 58bc
00000200: 2ed2 993b 0891 5fbc ec81 65bc 8faf ab3b
00000210: b079 623b 89f5 8c3a bde0 8c3c 8e6f 303a
00000220: d054 9ebc 6ed5 bfbc 472f 123c e314 76bc
00000230: 6070 bdbc d832 eb3c 2534 e43b 3820 20bc
00000240: a608 803c 4c35 9e3c 93f6 fe3c 67fc db3c
00000250: 067a e43c c3d0 1c3d de65 423d 3a55 413d
00000260: a7a5 533d 8bc1 52bd 52ba 50bd 3dca 0cbb
00000270: 72d4 74bd 022d 6dbd 5b79 3ebc fe04 22bd
00000280: e3b6 25bd 4b1d 8b3b 6624 53bd cfe3 22bd
00000290: fb63 3bbd d813 56bd 29fa 27bd 1b42 3fbd
000002a0: dde2 3cbd 26a7 0ebd c4d0 29bd 0780 8dbd
000002b0: 904d 94bd 0f3c cdbd 3239 79bd a26d 75bd
000002c0: decc babd f8a4 79bd 8702 6cbd 9cd5 afbd
000002d0: 1af6 83bd ddf8 28be a1e3 b5bd 6b1f 39bc
000002e0: e4b1 32bd 56a9 92bc 5dbe 043e 9a39 493e
000002f0: 0d2d dd3d b6a0 15bc 5802 03bc cc3c a5bc
00000300: 3cec 843c a4b3 8c3c 0ed6 493c d0bc db3c
00000310: a626 ab3c 6c2e af3c 1a8d 07bd 1cc8 dfbb
00000320: cf00 a6bb dcbd 9bbc 9702 033b 9fdc 2d3c
00000330: 393c af3b 117e 993c ad14 ef3c a0cc 20ba
00000340: a1b6 a739 ddd5 25b9 44d5 cbba f2e8 9aba
00000350: 45b9 deba 31eb 0b3c 1935 2a3c c60e 343c
00000360: f798 ce3b 7e09 b93b a68b 1e3a 754c dcbb
00000370: 6e1d f3bb 2f25 41bc 3842 04bb 2d04 25bb
00000380: 98a7 2abc 5235 6abd 6a83 65bb 522c 0cbd
00000390: 43eb cabd ce77 62bd 49fc 7bbd c900 0dbe
000003a0: 4d4b 06be 6a25 03be ca79 a0bd 1667 12be
000003b0: d48a b0bd 686e e5bd 1881 35be 1882 f3bd
000003c0: a4b4 6cbd 79d3 fdbd c986 a1bd 6551 263c
000003d0: 0138 e73c af3f 12b9 e281 523c 43d0 e53c
000003e0: 8241 9c3b 5289 193c 60b3 da3c b594 7d3b
000003f0: 7bf4 a93a 4cc4 d63c 57eb 783a b209 d1b9
0.08566141 0.06732595 0.014219186 0.078366935 0.0464742 -0.010623431 0.024381628 -0.029909182
-0.052644704 -0.15006009 -0.12922241 -0.072571024 -0.124815874 -0.11375631 -0.06410159 -0.060915623
-0.05401695 -0.019486219 0.025573771 0.008444415 -0.014158163 0.020010786 -0.0026848733 -0.021617448
0.018939415 -0.003036617 -0.02155707 -0.011689178 -0.011166744 -0.012411091 -0.011772638 -0.012602933
-0.013953098 -0.014590141 -0.014970429 -0.017269159 0.05523291 0.054893963 0.060296237 0.05485765
0.056162894 0.06345301 0.05735062 0.05762474 0.064534605 0.09584014 -0.13841142 -0.06815407
0.06285868 -0.29155186 -0.120120496 0.1883387 0.08148273 0.02038492 -0.0014087415 -0.016841676
-0.04735605 0.034736797 0.01902497 -0.024360023 0.04020589 0.014430344 -0.030304348 0.018412381
0.0056025074 -0.011658362 0.011212726 0.01483173 -0.012235961 0.03784464 0.049208347 0.032189276
0.0010137907 0.009845363 0.010246973 -0.001987251 0.0093579 0.009594786 -0.017287025 -0.008956561
-0.009933658 0.003541566 5.813088e-05 0.0047843955 0.0037755952 0.0044059968 0.008498779 -0.0054370454
-0.004701042 -0.0017606004 0.086408205 0.12629509 -0.06288351 0.14455381 0.1830948 -0.08159128
-0.0753276 -0.093599886 -0.13510816 0.01320784 0.008534624 0.015476266 0.015518332 0.012052346
0.021791782 0.011840016 0.014827076 0.011435804 0.012884113 -0.00050617015 -0.0012496862 -0.008697956
-0.028688319 -0.02462405 -0.020811489 -0.034630015 -0.034643013 -0.010709983 -0.0114052575 0.012542781
-0.010750915 -0.006836698 0.013528675 -0.0026893492 -0.0011197259 0.014763181 -0.013303143 -0.013219386
0.004694245 -0.013645418 -0.014008027 0.005239434 0.0034557395 0.0010754328 0.017197007 0.000673049
-0.019327551 -0.0234172 0.008922405 -0.015019628 -0.023124874 0.028710768 0.006964224 -0.009773307
0.015629124 0.019312523 0.031123435 0.026853753 0.027890217 0.03828503 0.04746043 0.04720042
0.05167165 -0.05145411 -0.05095894 -0.0021482848 -0.059772916 -0.05790425 -0.011625613 -0.039555542
-0.040457617 0.0042454354 -0.051548384 -0.039768036 -0.045749646 -0.05226502 -0.041010056 -0.046693902
-0.04611479 -0.034827374 -0.04145886 -0.06909185 -0.072413564 -0.10021221 -0.06084556 -0.059919007
-0.091211066 -0.060948342 -0.057619598 -0.08585665 -0.064434245 -0.16501184 -0.088813074 -0.0112989945
-0.04362668 -0.017903011 0.12963243 0.1965088 0.107996084 -0.009132555 -0.007996164 -0.020170592
0.016225927 0.017175503 0.012319101 0.026823431 0.020892452 0.02138444 -0.03309355 -0.006829275
-0.0050660144 -0.01901143 0.0019990557 0.010611682 0.0053477553 0.018736871 0.029184664 -0.0006134007
0.0003198879 -0.00015815297 -0.0015551229 -0.0011818691 -0.001699247 0.008539961 0.010388636 0.01098985
0.006304856 0.0056468835 0.0006048031 -0.0067229816 -0.00741928 -0.01178865 -0.002018107 -0.002517949
-0.010415934 -0.057179756 -0.0035020956 -0.034221955 -0.09908154 -0.055290036 -0.061519895 -0.13769831
-0.13114662 -0.12807241 -0.078357294 -0.14297137 -0.08620229 -0.11202699 -0.17725027 -0.11890048
-0.05778946 -0.12393851 -0.07887036 0.010151242 0.028224947 -0.00013947369 0.012848349 0.028053408
0.0047685513 0.009371119 0.02669686 0.0038693373 0.0012966538 0.026216649 0.00094955176 -0.0003987081

scale1.0.1.weight f4 [64]
00000000: d434 583f 4d41 8c3f 8e5d 7a3f cfff 443f
00000010: d468 753f 4602 573f 4fee 673f a30f 643f
00000020: 067d 833f 146d 993f 5f05 813f ca5c 733f
00000030: 8647 563f a42d 673f 20bb a53f 54a9 813f
00000040: c053 693f 615f 623f 892b 513f 8eb4 8e3f
00000050: 84f5 423f 6c6d 9c3f 08aa 633f ae1c 643f
00000060: 450c 3c3f 3b92 803f 4158 5c3f 2d4a 563f
00000070: 3841 603f 9ba1 a83f 0d31 8c3f 8982 773f
00000080: 6cb1 6f3f ab82 843f a168 743f 88f8 813f
00000090: ec7f 5d3f bf0a 5c3f 87cb 7f3f 0f0e 7e3f
000000a0: 6459 7c3f 7566 553f 73d7 803f cb61 753f
000000b0: 817c 6c3f 4776 5b3f 4db3 843f b1c1 5c3f
000000c0: 569b 6e3f e1b4 783f f79c 783f 0e38 953f
000000d0: 9634 813f f8cb 823f 779b 5e3f f294 9d3f
000000e0: 668f 753f 5598 893f fdd9 7d3f ce25 733f
000000f0: 5e22 743f a536 623f cb92 5f3f 3e3e 4f3f
0.8445561 1.0957428 0.97799003 0.7695283 0.9586308 0.83987844 0.90598005 0.8908636
1.0272529 1.1986413 1.0079764 0.9506346 0.83702886 0.9030402 1.2947731 1.01298
0.9114342 0.88426787 0.81707054 1.1148851 0.7615588 1.2220893 0.8893132 0.8910626
0.7345622 1.0044626 0.86072165 0.83706933 0.87599516 1.3174318 1.0952469 0.96683556
0.936301 1.0352377 0.9547215 1.0153971 0.8652332 0.859539 0.99919933 0.992402
0.985739 0.8335946 1.006575 0.95852345 0.9237748 0.8572735 1.0367218 0.8623305
0.93205774 0.97151 0.9711451 1.1657732 1.0094173 1.0218496 0.8695597 1.231108
0.95921934 1.0749613 0.9916075 0.9497956 0.9536494 0.8836463 0.87333363 0.8095435

scale1.0.1.bias f4 [64]
00000000: b46e 1fbe aa75 b53d df0b 2e3e 7d5a 0fbe
00000010: 520d d43e cb74 98bd 9d8f ff3d c944 4f3a
00000020: b7c9 abbd c804 bb3e d27e 5c3d 80aa 893d
00000030: 3f29 77bd 7a20 273d a5de 433f 051d 883d
00000040: 6822 3e3d a4f8 57bd 766f 9fbd b252 da3e
00000050: 4ad1 1abe 1c43 2c3f 1c67 42be e2f6 ab3d
00000060: 4911 c7bd 731c e53e 1cfe 75bd 1293 543c
00000070: db26 e83d 99af 183f 6e27 103e 687c 1a3e
00000080: 2e83 02bd f70f 6d3d 6093 e83d 473e a53d
00000090: bfc5 2abd 9ec0 85bd 987c c43e 1016 1e3c
000000a0: 6b0e 3a3e 8fcc 673d fa4b 293d add8 c3bd
000000b0: 2595 f8bd 5f10 8c3b 2433 913e 7cd7 1e3c
000000c0: 6371 b53c 815b 95bc cc28 92bc ff4b 153f
000000d0: 0f5c 2ebd d9ae 5e3e 0656 a5bb 2583 103f
000000e0: 6fc2 273e b9c6 0f3f a6b5 f83e 33dd 17bd
000000f0: 7041 283d 9253 2e3c c857 903c 67f1 a8bd
-0.15569574 0.08860333 0.16996716 -0.13999362 0.41416413 -0.074441515 0.12478564 0.0007906673
-0.083880834 0.36527085 0.053831883 0.067219734 -0.06034207 0.040802456 0.76511604 0.0664616
0.04641953 -0.052727357 -0.07784931 0.42641217 -0.151189 0.672899 -0.18984646 0.083966985
-0.09720094 0.44748268 -0.06005679 0.012974517 0.11335536 0.5964294 0.14077541 0.1508652
-0.031863384 0.057876553 0.113562346 0.08068519 -0.04169249 -0.065308794 0.38376307 0.009648815
0.18169563 0.056591567 0.041332223 -0.09562812 -0.12137822 0.0042744125 0.2835933 0.00969493
0.022148794 -0.018232109 -0.01784172 0.58319086 -0.042568263 0.21746387 -0.005045655 0.5645011
0.16382764 0.561626 0.48576087 -0.037076186 0.04107803 0.010640042 0.017619982 -0.08249169

scale1.0.1.running_mean f4 [64]
00000000: 116d 0741 931d bfbf b42f 9b3e 8005 6fc1
00000010: a920 f23e e648 12c1 efcb 9ec0 d358 0741
00000020: 9867 2841 3ea2 dabe 509b da3f c16a b140
00000030: ec15 a23f 4a88 80bf fcb0 f5bc fe0f 05c1
00000040: f47f 0fc1 9abc c240 370f f140 39d1 83bf
00000050: 0266 97c0 7869 11be e055 7341 4c2d 403e
00000060: 2c43 43c0 8800 f03e 7bd4 ddbf 8998 15c1
00000070: dbe1 c5be d262 2f3f a548 3940 d0ec 23bf
00000080: ac7e eb3f 5f13 d9c0 105c cfc0 674a 64bf
00000090: fb32 94c0 e42b 6a40 e6f9 cf3e 8596 81c1
000000a0: b6a8 8fbf a658 1741 6cdd 0740 f36f a740
000000b0: af66 18c1 20bf 48bf 3ae0 d5bd c74e ac3e
000000c0: e39b 62c0 376a 2ec1 b862 e940 8f9e 8ebe
000000d0: 6de8 3ac1 4c33 39bf 578b 67c0 49b2 0e3e
000000e0: 27b1 02c0 ef3b 7b3e 5070 afbf 6b2e 2c41
000000f0: 8b79 84c0 4a81 b1bd 8f55 2bc0 1f23 4cc1
8.464128 -1.49309 0.30309832 -14.938843 0.47290543 -9.142797 -4.962394 8.459186
10.525291 -0.42701906 1.7078648 5.5442815 1.266294 -1.0041592 -0.02999162 -8.316404
-8.968739 6.0855227 7.5331073 -1.0298225 -4.731202 -0.1420039 15.208466 0.1876728
-3.0509748 0.46875405 -1.7330469 -9.34974 -0.38648877 0.6851016 2.8950589 -0.6403322
1.8398032 -6.7836146 -6.479988 -0.8917603 -4.631223 3.6589289 0.40620345 -16.198496
-1.1223361 9.459143 2.1228895 5.2324157 -9.525069 -0.78416634 -0.104431584 0.33653852
-3.5407646 -10.900931 7.2933006 -0.27855346 -11.681745 -0.723439 -3.6178796 0.13935198
-2.0420625 0.24534582 -1.370615 10.7613325 -4.139837 -0.08667238 -2.677097 -12.7585745

scale1.0.1.running_var f4 [64]
00000000: d9b8 ae41 d5c1 f23f a4d8 a03f 1624 0442
00000010: 1cfa 833f 99ef b241 bdc8 d440 db8b a741
00000020: 25b9 0842 7fca ce3e 112a c841 6f14 8d41
00000030: 4396 9d41 7ca0 7241 6678 183f a950 2542
00000040: 10cf ac41 3acf 1541 05f8 9f41 d785 733f
00000050: bac4 bd41 7217 113f 44eb 1d42 88fa aa41
00000060: 2f69 fa41 45cc ac3f 663e 1241 b057 9c41
00000070: 3ece f841 4584 a63e 1555 2a40 2d56 a041
00000080: f2bf a341 d377 bd40 ed46 b941 4d41 d441
00000090: cd3c 3041 16b0 ad41 4da7 5f3f adba 6a42
000000a0: 6ede 613f 8efe 3941 5e2e de41 fe90 a441
000000b0: ec15 bf41 5162 c841 99c1 c83e 968d cc41
000000c0: 5ebd 9541 7091 be41 8270 2142 9a39 f23e
000000d0: aacf ef41 e1d8 0642 3712 f741 b3b7 6b3f
000000e0: 10f4 0c40 6e9c 5b3f 1b16 773f 7f53 de41
000000f0: 1bcf 9041 2c92 e441 3e3b 0b41 b319 b141
21.840258 1.8965403 1.2566113 33.03524 1.0310702 22.366991 6.649504 20.943289
34.180805 0.40388867 25.02054 17.634977 19.69837 15.164181 0.59558713 41.32877
21.601105 9.363092 19.996103 0.951261 23.721058 0.566764 39.47975 21.37233
31.30136 1.3499838 9.140234 19.542816 31.100704 0.3252279 2.661443 20.042078
20.468723 5.920877 23.159632 26.531885 11.014844 21.71098 0.87364656 58.6823
0.88230026 11.624647 27.77264 20.570797 23.885704 25.048006 0.39210203 25.569134
18.717464 23.821014 40.35987 0.47309572 29.976398 33.711796 30.883894 0.9207718
2.2023964 0.8578557 0.96518105 27.79077 18.101126 28.571373 8.701963 22.137548

scale1.1.0.weight f4 [64, 64, 3, 3]
00000000: ffe9 1a3d d58c 353d 8e93 413d 965b 233d
00000010: 5273 4a3d cc1f 673d 61a8 783d fb4c 943d
00000020: 1231 9e3d cc62 8b3c f851 82bc 09be bebc
00000030: 160d 393c 66c7 b4bc 68a6 b8bc 5e40 1ebb
00000040: fe9f 10bd bb8f 1cbd 9dc9 b1bc a19d 29bd
00000050: eb4f 28bd 8189 1abd 8b5e 3abd 9531 2dbd
00000060: dcfc aabb c34e d5bc 538d 26bc afe5 2ebd
00000070: 1213 73bb 7432 693a 3ece 35bd 0a5c eaba
00000080: 29f3 c03a 0659 1ebd f904 c8bb 71b3 7b38
00000090: 1d9b 8cbd d2ce 99bd 8663 92bd d764 5cbd
000000a0: dcab b2bd 6890 8ebd 032a babd 45be aabd
000000b0: 0aa9 99bd 1cda 87bd 2373 5c3b f4f6 2abd
000000c0: 95af f7ba 3cde 8a3d 9a6a 483c fdc5 463c
000000d0: 3fc7 873d 1de0 8f3c 30ea 83bd 4271 83bb
000000e0: d8bc 65bc 0258 d5bc ee3e 0a3d bbdc de3c
000000f0: cabd 39bb 519d 4e3d 112c 1c3d a3f1 afbc
00000100: ef25 16bd 1414 55bd af19 b5bc 2f40 17bd
00000110: f4fd 4bbd 0112 cdbc 7631 f8bc 2bb1 2dbd
00000120: dd6a 0e3c ffe7 bb3b 5fb1 b63a a576 43ba
00000130: 12ba 09bc 9aa9 7ebc b5b7 37bc e068 83bc
00000140: 36ae b9bc 8d42 12bb dd0d ccbc a2d9 5ebc
00000150: 5627 adbc 0223 fcbc e381 23bc 6d17 90bc
00000160: 6d38 d2bb 6722 77bc fec8 c3ba 8ec5 673c
00000170: 96b2 ccbc 5c97 883c aa3f 2a3d 27ef ceb8
00000180: 35a8 b23b ec2d 153d 00f9 27ba 7831 eebd
00000190: 2d72 0dbe 7624 edbd 7616 18be 63b4 46be
000001a0: 0e5b 2dbe 735c 26be 797e 49be f749 26be
000001b0: d8df b13a 9769 153c 8f3a 8c3c 25c4 093d
000001c0: 7ea8 303d 6667 4d3d 2dc6 5f3d 95e9 8a3d
000001d0: 1af8 963d 5bef 30bd 4b80 e6bb 2310 aabc
000001e0: d82b c0bc aefe d53c d864 b93b 79ac 8f3c
000001f0: 75e8 4b3d dd0a f93c 60a6 cbbc ee70 5ebc
00000200: f627 223d 97c8 1dbc aa99 d6bc 41b6 8e3c
00000210: 39a6 ebbb 97c2 4ebd 38a6 eb3c 3c9b 16bd
00000220: c0ca 70bc 4f97 c8bc 7240 0cbd db1a 75bc
00000230: e11e b1bc c1a3 69bd de93 2dbd 6a31 26bd
00000240: df4f 8b3c 4d87 453c f018 70bc 3e71 a239
00000250: e128 d23b bc40 c5bc 5ad2 81bc e1e3 64bc
00000260: bb35 11bd 7ec8 a1bc 5bad 28bc b13a 9fbb
00000270: 41f9 c4bc e508 dfbc a4a5 a5bc 1bc7 6dbd
00000280: 5379 85bd 3a2b 06bd f28b 85bc 7731 9ebc
00000290: 8353 9bbc f1f8 60bd 58c5 7bbd 4241 77bd
000002a0: 2771 a1bd f097 adbd f90e afbd c063 3dbb
000002b0: 01f4 ffbb 896c a8bc 0f9a 70bd edfc f5bc
000002c0: f98a dbbc beb6 bfbc 733d a8bb 6fa9 203c
000002d0: 220d c13c db64 453d 691f 033d 9cca e33c
000002e0: 0675 3b3d 8088 f63c b315 ed3b 0e41 c23c
000002f0: bd6f 703b 8458 d8bb 92c8 28bd 2676 bfbc
00000300: aaf7 f5bc 17c5 6dbd b9d3 29bc 0b0f e5bc
00000310: 7c33 aebc f203 c0bb 4f9a 2dbd d556 7abd
00000320: a32f bcbd 09cf 65bd 9d27 9dbd 3b62 c7bd
00000330: 5b3d 7ebd 8731 a2bd 8b6d bebd 183b 34bc
00000340: c68d 05bd 7f8c f3bc 376d 88bd bd86 bfbd
00000350: 4236 abbd 8202 dcbd 3d72 01be 261f dbbd
00000360: af2e c23c de14 873b 6e41 963b 57ff ce3c
00000370: 32de e3b9 2b0a 10b8 3612 d73c 52e4 fcba
00000380: ca48 843a 55f5 31bd 9ac1 1fbc 5cd8 b5bc
00000390: fa7c 8bbd 236b 2bbc 1e11 d53a 48f1 fcbd
000003a0: 3620 debc c309 3cbc f396 83bd 785c 86bc
000003b0: df6d a9bc 99fd afbb 68a7 4b3d d05b 1c3d
000003c0: f1f5 863c 421b 913d bee6 583d a321 4a3c
000003d0: accb d43c 6382 fa3c a3be 54bc d763 c23b
000003e0: 8e53 143c 8ccc c9bc c2ee 18bc 2a77 4fbb
000003f0: 6ac3 4ebd 9b17 e5bc 81e7 05bd d1eb 13bd
0.037820812 0.04432376 0.04725986 0.039882265 0.049426384 0.05642681 0.060707454 0.07241245
0.07724203 0.017014883 -0.015908226 -0.023283975 0.011294624 -0.022067737 -0.022540286 -0.0024147253
-0.03530883 -0.03822301 -0.021702582 -0.041410092 -0.04109184 -0.03772879 -0.04550032 -0.042283613
-0.0052181315 -0.026038533 -0.01016553 -0.042699512 -0.0037090224 0.0008895763 -0.04438614 -0.0017880213
0.0014720905 -0.038659118 -0.0061041084 6.001018e-05 -0.06865523 -0.07510151 -0.07147889 -0.053807106
-0.08724186 -0.06961137 -0.09090044 -0.08337072 -0.07502945 -0.06633398 0.0033637963 -0.04173942
-0.0018896932 0.06780669 0.012232447 0.012132165 0.066298 0.01756292 -0.06441152 -0.004011304
-0.014022075 -0.026042942 0.03375142 0.027204862 -0.0028341883 0.050442997 0.038127962 -0.021477526
-0.03665727 -0.0520211 -0.022106973 -0.036926445 -0.049802735 -0.025032999 -0.030297022 -0.04240529
0.00869247 0.005734443 0.0013938359 -0.0007456339 -0.008406179 -0.015543366 -0.011213233 -0.01604122
-0.022666078 -0.00223175 -0.024908954 -0.013601692 -0.02113692 -0.030778412 -0.009979698 -0.017589295
-0.006415418 -0.015083886 -0.001493722 0.014146222 -0.0249875 0.016673736 0.04156462 -9.867391e-05
0.0054521807 0.036420748 -0.00064076483 -0.11630529 -0.13813086 -0.1157922 -0.14852318 -0.1940475
-0.16929266 -0.16246204 -0.19677152 -0.16239153 0.0013570739 0.009119413 0.017117767 0.033634324
0.043129437 0.050147437 0.054632355 0.067828335 0.0737154 -0.043197017 -0.0070343367 -0.020759648
-0.023458406 0.026122417 0.0056577735 0.017538296 0.049782235 0.030400688 -0.024859607 -0.013576729
0.03958889 -0.009630344 -0.02619632 0.01742089 -0.007191446 -0.050478544 0.028765783 -0.036769137
-0.014696777 -0.024486212 -0.034241147 -0.014960016 -0.02162117 -0.057040934 -0.042377345 -0.04057447
0.017005859 0.012056184 -0.014654383 0.0003098342 0.0064135646 -0.02407872 -0.015847374 -0.013970346
-0.035451632 -0.019748922 -0.010295237 -0.0048592915 -0.024044635 -0.02722592 -0.020220585 -0.05805121
-0.065172814 -0.032756068 -0.016302083 -0.019310696 -0.01896072 -0.05492491 -0.0614675 -0.06036497
-0.0788291 -0.084762454 -0.08547778 -0.0028898567 -0.00781107 -0.020559566 -0.05874067 -0.030027831
-0.026799666 -0.023402568 -0.0051342784 0.009806021 0.023565833 0.048191886 0.032012377 0.027806573
0.0457659 0.030094385 0.0072352528 0.023712661 0.0036687695 -0.0066023488 -0.041206904 -0.023371767
-0.030025322 -0.058049288 -0.01036542 -0.027961275 -0.021264784 -0.0058598453 -0.04238349 -0.061117966
-0.091887735 -0.056105647 -0.07673571 -0.09735533 -0.062070232 -0.07919603 -0.092982374 -0.011000417
-0.03260591 -0.02973008 -0.06661456 -0.09351871 -0.08359958 -0.10742666 -0.12641235 -0.106993005
0.023703901 0.0041223606 0.0045854365 0.02526824 -0.00043462362 -3.4341745e-05 0.0262538 -0.0019294119
0.0010092494 -0.043446857 -0.009750748 -0.022197895 -0.06810947 -0.010462555 0.0016255712 -0.12350708
-0.027114969 -0.011476937 -0.06425276 -0.016401514 -0.020682273 -0.0053708074 0.049720198 0.038173497
0.016474696 0.07085277 0.052954428 0.012337121 0.025976025 0.030579751 -0.012984904 0.005932312
0.009053124 -0.024633668 -0.009334268 -0.003165672 -0.05047933 -0.027965358 -0.032691482 -0.036113564

scale1.1.1.weight f4 [64]
00000000: 6e49 593f 710e 743f 0acf 753f 28a4 803f
00000010: b5c4 673f 9621 633f 8b21 783f c5b4 803f
00000020: 52e7 a23f af48 693f 285e 553f 67ab 753f
00000030: 52fd 6f3f c9cb 653f bafe 7d3f c52f 3a3f
00000040: 1dab 6e3f d4c2 883f e9b0 6d3f 75c0 553f
00000050: 539f 6f3f 6b56 993f c8f5 7e3f ed2b 5f3f
00000060: 59f2 733f 3c63 783f 82a2 783f 6de7 9e3f
00000070: c45a 663f 6070 603f 348e 653f 89de 783f
00000080: b7af 663f 6292 803f aeea 713f 0f2d 553f
00000090: 3ec8 593f 5f45 903f 2394 863f c46f 673f
000000a0: 9443 6a3f 0976 5f3f c260 533f 4889 7f3f
000000b0: 059f 763f 2507 743f fef8 423f 27b7 693f
000000c0: cfaa 8f3f d6f4 5a3f 9101 883f 2f5d 4f3f
000000d0: 8530 753f cf25 6c3f 6eef 623f 893e 6d3f
000000e0: 8d87 583f f2d2 5c3f dea0 973f 3253 5f3f
000000f0: 1664 6c3f 087c 823f ab3e 643f 5a34 773f
0.8487767 0.95334536 0.9601904 1.0050097 0.90534526 0.88723123 0.9692618 1.0055166
1.2726843 0.9112653 0.83346796 0.95964664 0.9374591 0.89764076 0.99216807 0.7272914
0.9322985 1.0684457 0.9284807 0.8349679 0.93602484 1.1979498 0.9959378 0.871764
0.9529167 0.9702642 0.9712297 1.2414376 0.8998225 0.8767147 0.8967011 0.9721456
0.9011187 1.0044672 0.9449872 0.8327188 0.8507117 1.127117 1.0513958 0.90404916
0.91509366 0.8728948 0.82569516 0.9981885 0.96336395 0.953234 0.7616118 0.91295093
1.1224002 0.8552984 1.0625478 0.8100156 0.9577716 0.9224519 0.8864659 0.92673546
0.84581834 0.86259377 1.1845968 0.8723632 0.9234022 1.0194101 0.89158124 0.9656426

scale1.1.1.bias f4 [64]
00000000: 5c3b a43d 3ddb 3d3d 9c72 773e de34 0d3e
00000010: a549 193d 5d4b 943d 3149 793e db80 fc3d
00000020: b57e 793e 8c72 b83c 0c97 68be f6e3 fcbc
00000030: 6a68 553e 679c 243c f139 6f3e a79d 30be
00000040: 50c1 853d d732 293e 1a31 bebc 5001 01bd
00000050: af34 6c3d e063 803e 5ed6 623d edca e8bc
00000060: 95c2 0b3e 18a9 193e 7351 773d 08e1 383e
00000070: b753 92bc 225d fabd 6b8f fcbb e35a 053e
00000080: 0240 37bd be11 a53d 293e 6c3d 1b92 08be
00000090: 712d 9e3d cdd1 743e d1a5 283e fc8b 0c3d
000000a0: b59c 8a3d 3200 30bc 192c b7bc 1cf0 563e
000000b0: 1ae9 8f3d 2da7 84bd 30c4 f0bd 28c2 34bc
000000c0: e5f9 f13d 8323 04bd 435a 043e 6b3a 1b3c
000000d0: 8bcd 7e3e 9ede 80ba cb1e b73d c766 c0bc
000000e0: 7ab5 ebbb b193 44bc 69c6 343e 2b3a 253c
000000f0: 1588 373e 7274 223e 099b 283c 2d02 793e
0.080191344 0.04635166 0.24164814 0.13789698 0.03742375 0.07240937 0.24344327 0.12329265
0.24364741 0.022515558 -0.2271387 -0.030870419 0.20840612 0.010047055 0.23361947 -0.1724764
0.06531012 0.165233 -0.023216773 -0.031495392 0.05766743 0.250762 0.055380218 -0.028417075
0.13648446 0.1500591 0.06038041 0.18054593 -0.017862184 -0.12224795 -0.0077075264 0.13022952
-0.044738777 0.08060025 0.057676468 -0.13336985 0.07723511 0.23908158 0.16469504 0.034313187
0.06768171 -0.010742234 -0.022359895 0.20990032 0.070268825 -0.06477199 -0.1175617 -0.011032619
0.11815242 -0.03226043 0.12925057 0.009474377 0.24883096 -0.000983197 0.0894142 -0.023486508
-0.0071932646 -0.011998103 0.17653812 0.010084669 0.17923005 0.15864733 0.0102908695 0.24317236

scale1.1.1.running_mean f4 [64]
00000000: 6f4f c7c0 f818 c7bf 0958 cdc0 fdf8 cbc0
00000010: 979e 03c1 82e0 38c0 5038 93bf 030e 8cc0
00000020: 6708 07bf fd6c 0040 7805 cb40 f79e 3ac0
00000030: 234f b3c0 72ee c2be 9df0 cfc0 9a40 0cc0
00000040: c2e8 c8c0 18cb 17bf af72 5540 85a1 42c0
00000050: dfe4 40be 112f c0be ea29 673f c2f6 93c0
00000060: 8952 25c0 4451 87c0 0056 80bf dca7 6a3f
00000070: e70b 6dc0 7fd1 e340 7045 f53e a680 7ec0
00000080: becf d8bf 1393 fd3f f84e bbbf 316d ac40
00000090: b83f a63c b5cb 72be a7b3 0639 7cc1 45c0
000000a0: 7ea0 73c0 7988 de3f 722e 883e fcc9 2ec0
000000b0: 80e2 8ac0 a808 8f40 d9e7 c23f 30f6 e6bf
000000c0: f1c8 70bd 7f4d 9d3f 8629 01bf eddf 60c0
000000d0: 9459 dec0 b301 2ac0 6dd3 69c0 ad37 5cc0
000000e0: 808f 1dc0 63f1 a03f 1519 403e 4642 86c0
000000f0: fd67 02c1 1e36 25c0 fa30 93bf b99f e9c0
-6.2284465 -1.5554495 -6.4169965 -6.374144 -8.226218 -2.8887029 -1.150156 -4.3767104
-0.52747196 2.006652 6.3444176 -2.9159524 -5.6034102 -0.38072544 -6.4981217 -2.191443
-6.278413 -0.5929427 3.3351247 -3.0411084 -0.18837307 -0.3753591 0.9029833 -4.623872
-2.5831625 -4.22867 -1.0026245 0.91662383 -3.7038515 7.1193233 0.4790454 -3.976602
-1.6938398 1.9810508 -1.4633474 5.388329 0.020294055 -0.2371052 0.00012846162 -3.0899343
-3.8066707 1.7385398 0.26597935 -2.7310781 -4.340149 4.4698067 1.5227004 -1.804388
-0.058785383 1.2289275 -0.50453985 -3.5136673 -6.948435 -2.6563537 -3.6535294 -3.4408982
-2.4618835 1.2573665 0.18759568 -4.19559 -8.150388 -2.581428 -1.1499321 -7.3007474

scale1.1.1.running_var f4 [64]
00000000: 6837 9141 04f9 3341 a325 7141 009e 9541
00000010: 78aa 4841 1ea7 7541 6790 5a40 4e39 c241
00000020: f50f 9d40 e313 0c41 5744 8a41 efbd 6741
00000030: 0708 9641 5e61 ba41 8d51 5041 4d0a ce41
00000040: 853f 0a42 d736 9940 55bb fe41 71be 8f41
00000050: c0bb dc41 8907 8440 e618 cd41 f6b8 6941
00000060: c2c8 bf41 f08a d741 7f80 1042 1db4 b340
00000070: 7b7b 3541 13ad 4e41 ae56 4341 611d b440
00000080: 52a0 2741 7633 c541 ca46 e741 73b5 ff40
00000090: f0c6 a541 02f9 7840 1f43 9140 349a dd40
000000a0: c139 6441 9363 8b41 ab1e 7441 fe63 b940
000000b0: 2db8 bd41 2fe4 5b41 4b50 0342 756e ee41
000000c0: 6d14 a040 331e 9d41 3ba3 e740 b0f7 d841
000000d0: efe7 a341 ec10 4f41 2742 ee41 dc5c b940
000000e0: d625 c241 a554 e441 6fd5 dc40 9829 d141
000000f0: e2db 9341 d55c 1341 6bc3 b141 4400 3c41
18.152054 11.248295 15.071689 18.702148 12.541618 15.3533 3.4150636 24.27798
4.908198 8.754855 17.28337 14.4838705 18.75392 23.297543 13.01991 25.75503
34.56203 4.7879443 31.84147 17.967989 27.591675 4.12592 25.637157 14.6076565
23.973026 26.94284 36.125484 5.6157365 11.342647 12.917254 12.208662 5.6285863
10.476641 24.650127 28.909565 7.9908996 20.722137 3.8901982 4.5394435 6.9250736
14.2641 17.42362 15.257487 5.793456 23.71493 13.743209 32.82841 29.803934
5.0024934 19.639746 7.2386756 27.120941 20.488249 12.941631 29.7823 5.7925854
24.268475 28.54133 6.901054 26.14531 18.482365 9.210164 22.220419 11.750065

scale2.1.0.weight f4 [64, 64, 3, 3]
00000000: df8a 673c bcc6 5abc aba9 5dbb 9a31 e63c
00000010: 299d c9bb 1e77 783c d4c0 883d 6315 453d
00000020: 059d c13d 4d03 45bb fbf8 7cbc 4c71 0dbc
00000030: 9cde 973c dd8f 41bb 7f0d 063c 4fd6 1b3d
00000040: bc6b 273c 34bc 773c 1861 0bbd 3b71 38bd
00000050: e032 28bd 5013 14bc f135 04bd 7791 ecbb
00000060: 9244 653c a8e2 2bbc 2da1 743c 37d1 303c
00000070: c815 6cbb a5fc 23bc 79a6 343d d877 183c
00000080: 92f1 8b3c 067f c73d c0e9 863d 6152 983d
00000090: 6217 543c 4be6 d4bc 1cca 98bc 3173 133d
000000a0: b465 91bb 5b48 5e3c e4c6 263d b364 18bb
000000b0: 1ac7 553c 22b4 a53d b5ab b03d 9158 e53d
000000c0: ae90 1fbc 639c bdbc 6fd1 4bbc 7acf 85bb
000000d0: e1cd 06bc 6d96 633a e783 fcbc 1934 a93a
000000e0: 5314 643d bc9d c6bd 0350 10be 76dd a4bd
000000f0: fb2c 263d b96f 81bb a94f e1bc 6bed 1f3d
00000100: a7f6 1c3d 1543 a13d c269 04bd 15a3 38bd
00000110: 1bb6 ae3b d460 b6bc f7ae b9bc 0e9d b33c
00000120: b0f5 afbc bdd9 4e3b b136 75bd a531 37be
00000130: 9273 8fbe fd12 80be 7726 ecbd a38b febd
00000140: 1f19 59bd 38b7 943b fd0e 363c f162 203a
00000150: 1ea1 f3bc 157a 71bd 43ee 78bd 68d6 1f3d
00000160: c0be 153c 6bc7 49bc 0cd1 453d 2b89 6f3d
00000170: c07f 643d c78d 523c aeb2 8a3c fa56 8a3c
00000180: abcd 923c 0bd8 e43c 8123 003d 6f34 0c3d
00000190: 04da d83c 1e48 b53c aacf 993c 7fb8 43bc
000001a0: 4eed c5bb f4c9 883d f698 a83c e964 323c
000001b0: 5830 4c3d d5aa 0a3d bcc0 563d 6156 d5bb
000001c0: 3420 38bd 3b61 5ebc c677 8abc acb6 3ebd
000001d0: 97a8 a4bb c2fa 413c 17f6 d63b 0299 443c
000001e0: def9 4dbc 9ee5 00bd 339d b0bc 3962 5a3c
000001f0: a191 21bc bdb5 88bc 10ba 41bc 9504 ecbc
00000200: 5044 acbc 3da1 aa3c c77d 9ebc cdc9 66bb
00000210: b213 463d 21c9 e53b 9492 5f3c 2f12 213d
00000220: 8fca 3f3d 0e08 ef3c 1868 2a3d c26a 1f3d
00000230: 435a fc3c c80e 7f3d fa7d 8f3d bec1 843d
00000240: 82f9 053d 36ac 993c aef8 863d c93e 213c
00000250: c7c8 76bc debb 283d f84c 7a3c d0d2 f23b
00000260: 2577 403d 9a2b 66bc 734c 853d a184 b43d
00000270: a283 a3bd fc6f c9bd 2987 38bd 7f91 a83c
00000280: 3086 57bd d0d7 21bd 5409 7b3d 8729 703d
00000290: b9fc bf3d dd16 42bd 82f1 8dbd 6904 0ebd
000002a0: bc72 71bd 6ad4 89bd a6cc 66bd a214 333c
000002b0: 38ab aa3c 5e52 453d b693 3fbc f05e 86bc
000002c0: e666 813c d6db 4dbc e441 85bc c125 9b3c
000002d0: 2132 a43c 9aa5 483c 20dc ed3c fb49 00bb
000002e0: 85a8 b9bc 7128 d0bb da8f 8e3c 7851 fe39
000002f0: c3b3 823c 8a40 c43d 7f1b b63d b85b 6ebc
00000300: 5b9e 84bd 34ec 5dbd 1113 37bd 3f67 273d
00000310: 3e00 cc3d 26da 033e f9ad 733d 8a11 f83c
00000320: fe34 723d 0a75 ec3c 8d6b 82bc 48c1 993c
00000330: 3449 a53c 77cd 3fbc 5478 8c3c affe 3e3d
00000340: 6328 bf3c 8f31 273d de0d c4bc 38ff f2bc
00000350: 5324 c0bb 716e 1dbd 819f 3cbd 59bb bdbc
00000360: 6ea4 ab3d 9a81 923d 04b2 cc3d 2a5b ff3a
00000370: 95f5 f9bc e875 1c3c a9ad 98bc 98b1 3bbd
00000380: f2f0 bfbb 6b9c 5e3d 6b17 283d 307e aa3d
00000390: 3dc5 433c 9396 21bc f5e4 0b3d 39fb 86bb
000003a0: 00d6 f6bb 5079 fa3c 34f4 ef3b 4041 d7bc
000003b0: a055 34ba 83aa ce3b f1d8 14bd 5eb3 01ba
000003c0: 046b c83c 07a7 27bb 602d b93c 6489 593d
000003d0: 80d4 fc3d 625b 103e babc a6bd 99ea 04bd
000003e0: 6468 14bd 5e07 233d e153 a03d db77 453d
000003f0: f5ff b7bc daf1 9f3b 9edc f2bb bc2e b2bc
0.014132231 -0.013353046 -0.0033823054 0.028099824 -0.006152768 0.0151651185 0.06677404 0.0481161
0.09453777 -0.0030061782 -0.015440221 -0.008632969 0.018538766 -0.0029535212 0.008181929 0.038046177
0.010218557 0.015120555 -0.034028143 -0.04502986 -0.041064143 -0.009037808 -0.032278005 -0.007219489
0.013993399 -0.010491051 0.014931005 0.010792068 -0.0036023725 -0.010008966 0.044104073 0.009305917
0.017082963 0.09741025 0.06587553 0.074375875 0.012945028 -0.025988718 -0.01865106 0.035998527
-0.004437173 0.013567056 0.04071702 -0.002325338 0.013047958 0.08090998 0.086265005 0.11198533
-0.009739084 -0.02314586 -0.01244007 -0.004083571 -0.008227796 0.0008681778 -0.030824615 0.0012909203
0.055683445 -0.09698054 -0.14093022 -0.08050053 0.04057024 -0.003950086 -0.027503805 0.03904478
0.038321164 0.07874123 -0.03232742 -0.045077402 0.0053317673 -0.022262968 -0.022666438 0.021925475
-0.021479458 0.0031562888 -0.05986661 -0.17890032 -0.2801786 -0.25014487 -0.11530774 -0.12428977
-0.053002473 0.004538443 0.011111972 0.0006118259 -0.029739913 -0.058954317 -0.0607741 0.039022833
0.009139717 -0.012315611 0.048295066 0.058480423 0.055785894 0.012851185 0.016930904 0.016887177
0.017920336 0.027935049 0.03128386 0.034229692 0.026471145 0.022129115 0.01877578 -0.011945843
-0.006040252 0.066791445 0.02058075 0.010888317 0.04985079 0.033854324 0.0524299 -0.0065105413
-0.044952586 -0.013572986 -0.016902816 -0.04656093 -0.0050249803 0.0118395705 0.006560098 0.0119993705
-0.01257178 -0.03146898 -0.021559333 0.013329082 -0.009861381 -0.016688222 -0.011824146 -0.028810779
-0.021028668 0.020828838 -0.019347085 -0.0035215497 0.048358627 0.007012502 0.013645787 0.03932398
0.046824034 0.029178645 0.041603178 0.03892017 0.030804759 0.062269956 0.0700645 0.06482266
0.032708652 0.018758874 0.06590401 0.009841629 -0.0150625175 0.04119479 0.01527714 0.0074103847
0.046988625 -0.014048481 0.06508722 0.088143595 -0.07984091 -0.098358124 -0.045050774 0.02057719
-0.052618206 -0.039512455 0.061288193 0.058633354 0.09374375 -0.047385085 -0.069308296 -0.034672175
-0.05894731 -0.06729968 -0.05634751 0.010930212 0.020833597 0.048174255 -0.011692932 -0.016402692
0.015796136 -0.01256462 -0.01626677 0.0189389 0.020043435 0.012246514 0.029035628 -0.0019575346
-0.022663364 -0.0063524772 0.017402578 0.00048507354 0.015954858 0.09582622 0.08891963 -0.014548235
-0.064755164 -0.05418034 -0.044695918 0.040869948 0.09960984 0.12876186 0.059492085 0.0302818
0.05913257 0.028864402 -0.015920425 0.018768921 0.020176508 -0.0117067015 0.01714722 0.046629604
0.023334688 0.040818747 -0.023932394 -0.029662713 -0.005863705 -0.038435403 -0.046050552 -0.023160623
0.08380972 0.07153626 0.09994891 0.0019482125 -0.03051261 0.009549595 -0.018637495 -0.045823663
-0.0058575803 0.05434839 0.041037958 0.083248496 0.011948881 -0.00986256 0.034153897 -0.0041193035
-0.007532835 0.030575424 0.0073228125 -0.02627623 -0.0006879214 0.0063069477 -0.036339704 -0.0004947687
0.024465092 -0.0025581734 0.022604644 0.05310954 0.12345219 0.1409736 -0.081414655 -0.032450292
-0.036232367 0.039801948 0.07828499 0.048210006 -0.022460917 0.004881126 -0.0074115535 -0.0217508

scale2.1.1.weight f4 [64]
00000000: ab47 993f a2fa 853f c141 763f 18c3 853f
00000010: 245c 823f 56b8 853f c94c 913f cc3d 6b3f
00000020: 8287 943f 22e8 833f 7fac 623f 94b0 733f
00000030: 7d45 863f eacc 8e3f 1000 7f3f 74e0 803f
00000040: 2bda 603f 916b 8b3f c22b 903f 0b32 763f
00000050: c506 883f eff7 863f a6fa 653f fd8f 933f
00000060: e225 4c3f a275 7c3f 6d14 4a3f 994b 8d3f
00000070: 3797 8a3f d637 873f 9326 803f fc30 8e3f
00000080: 092e 723f b9ee 813f 5cb6 833f 6a60 8c3f
00000090: d271 803f d09d 5c3f 2843 833f 18f1 6a3f
000000a0: 80a1 8a3f b792 863f 72f6 8f3f ef81 7c3f
000000b0: 0f86 723f d503 8c3f 3eb6 883f 2973 643f
000000c0: 2f97 733f 58bc 823f 9f58 4d3f f89a 673f
000000d0: 439c 643f 22a9 7e3f 6a12 8a3f c27c 813f
000000e0: aa90 8c3f 2377 853f 036b 873f bf46 893f
000000f0: 5354 8c3f 7074 713f cbbd 513f e40a 693f
1.1974996 1.0467112 0.9619408 1.0450163 1.0184369 1.044688 1.1351558 0.9189117
1.1603854 1.0305216 0.8854446 0.9519131 1.0489956 1.1156285 0.9960947 1.0068498
0.878329 1.0892202 1.1263354 0.9617011 1.0627066 1.0544413 0.89835584 1.1528317
0.79745305 0.98616993 0.7893742 1.1038696 1.0827397 1.0563915 1.0011772 1.1108699
0.94601494 1.0150977 1.0290027 1.0966923 1.0034735 0.861783 1.025487 0.9177413
1.0830536 1.0513524 1.1247084 0.9863576 0.9473581 1.093867 1.0680616 0.8923822
0.9515256 1.0213728 0.8021335 0.9047084 0.89300936 0.99476826 1.078687 1.0116198
1.0981648 1.0426983 1.0579532 1.0724715 1.0963234 0.94318295 0.81930226 0.9103224

scale2.1.1.bias f4 [64]
00000000: 2199 503d d7d2 e33d f0bc 253d 8c85 aa3d
00000010: 974a 013c 618d 90bc c3e9 b03c d989 97bc
00000020: 5492 c9bd 130e cfbc 9f03 46bd d60c 013c
00000030: b99e 1c3d 9e67 723d 5bf7 1c3e 87cf 0dbd
00000040: a4b3 7fbb fc6b c0bd c055 f3bd 0b59 863b
00000050: 4936 cf3c 0978 e93d a9d8 5b3d 594c 463e
00000060: b37e 17be 4ada 61bd c8e8 21be de17 843d
00000070: 0d05 773e 9a2a c03d 8d87 ae3d 3517 d63d
00000080: 0f7d 913d 615e 803d 14a8 673d 6ab6 193e
00000090: ed65 02bd 4bec 31be 77fb 263d bebd 06be
000000a0: 3f8d cf3d 7431 70bc 88df 973d c8e1 10bd
000000b0: 6995 123d 6a79 b8bc 74bd 4a3d 183d d3bd
000000c0: f6fa 923a 256e 8f3d a546 9cbd eec0 79bc
000000d0: c6e7 c1bd 621c 6dbd dc02 c7bd efff cd3d
000000e0: a68b 193e b1ff cd3d b36d 7a3d f403 033d
000000f0: 9edd 953d 3a7d cabc d6c0 08be 2164 b63c
0.050927285 0.11124199 0.040463388 0.08326253 0.007891319 -0.01764554 0.021595841 -0.018498348
-0.09842363 -0.025275266 -0.048343297 0.0078765955 0.038237307 0.05918085 0.15328734 -0.03462174
-0.0039016986 -0.093955964 -0.1188159 0.00409997 0.02529444 0.11399848 0.05367342 0.19365062
-0.14794426 -0.055139817 -0.15811455 0.06449865 0.2412302 0.093831256 0.08521948 0.10453645
0.07103931 0.06268001 0.056556776 0.15010992 -0.031835485 -0.17375295 0.04076716 -0.13158318
0.101343624 -0.014660228 0.07415682 -0.03537157 0.03578702 -0.022518832 0.049497083 -0.10314387
0.0011213708 0.0700343 -0.07630662 -0.015243752 -0.094680354 -0.057888396 -0.09717342 0.10058581
0.14994678 0.10058535 0.061139774 0.031986192 0.07317661 -0.024717916 -0.13354811 0.022264542

scale2.1.1.running_mean f4 [64]
00000000: 1299 18bf 67f8 b43f 2a90 ec40 9dc6 20c0
00000010: 2398 afc0 21e0 b43d cf29 a9c0 a719 88c0
00000020: 8845 3cc0 f4f0 b8c0 1f14 5540 c443 b3c0
00000030: 0dec e1c0 a75e c8bf 051f 43bf 2a39 b3c0
00000040: cc7c b1c0 1b70 cac0 8549 b7c0 ede8 093f
00000050: e1ff 11c0 f507 d03f e366 54c0 d901 95c0
00000060: 391d 95c0 79f9 0ac1 665b 1440 e4a8 bec0
00000070: 2a1d 2140 c086 abc0 6436 96c0 3168 96c0
00000080: 49fd b3bf 271f 90c0 0572 08c1 e9ee 6cc0
00000090: ffd0 11bf bad5 d1c0 0991 db3d 3403 f7c0
000000a0: bf6b a1c0 d7ec fec0 6ab2 37c0 aad9 45c0
000000b0: 736f 413e f0dc 9cc0 bba1 e8bf b721 7b40
000000c0: 9fca 5240 2ad8 a7c0 49aa 4240 7bbf b2c0
000000d0: b31a cec0 42fd 2d3f 3d46 7dc0 4eaa aec0
000000e0: 0b48 cac0 012d f63f 47dd d0bf 3255 a9c0
000000f0: 8f45 2bc0 8312 c140 a33e 41bf b4d3 853f
-0.59608567 1.4138306 7.392598 -2.5121224 -5.4873214 0.08831812 -5.2863536 -4.2531314
-2.9417439 -5.779413 3.329353 -5.602022 -7.060065 -1.5653886 -0.7621921 -5.600728
-5.546484 -6.3261847 -5.7277246 0.5387104 -2.2812426 1.6252428 -3.3187797 -4.6564755
-4.659817 -8.685906 2.3180785 -5.9581165 2.517405 -5.360199 -4.6941395 -4.7002187
-1.4061671 -4.503803 -8.527837 -3.702082 -0.5695953 -6.5573397 0.10721023 -7.719141
-5.0444026 -7.966411 -2.8702645 -3.0914102 0.18890171 -4.90197 -1.8174356 3.9239328
3.293617 -5.245137 3.0416434 -5.585874 -6.440759 0.67964566 -3.957412 -5.458289
-6.3212943 1.9232484 -1.6317528 -5.29165 -2.6761205 6.0335097 -0.754862 1.0455232

scale2.1.1.running_var f4 [64]
00000000: e035 8940 128d 9740 fa8e 6b41 18cd 9840
00000010: a2ef d440 a22f a340 c66f 2041 7644 0341
00000020: 78cc 2141 17a1 2941 1763 d140 fb5d 1c41
00000030: 0117 0841 2973 a140 a48d 9040 dbf6 8b41
00000040: f8f5 4441 c56a 9941 e80a cd41 a175 5741
00000050: 64b4 4341 ccff cc40 fbf8 1c41 f8c1 bb40
00000060: cef8 3041 8e27 6d41 cb52 0641 d792 2941
00000070: a95b 9640 6f19 de40 fe8b fd40 cb91 7040
00000080: 7f60 0b41 d43a 0441 4ba3 7241 b5f4 2b41
00000090: 3438 a640 0ded 5741 e60f 6340 0316 8641
000000a0: ad70 bc40 4739 8141 59c7 d740 2cf2 2641
000000b0: 5809 6b40 30ed 8741 90a4 ce40 2e2d d840
000000c0: 07bb f43f b00a 2341 ce52 f340 bd4f 4341
000000d0: 899b 5041 4387 8140 0356 6841 abea a640
000000e0: c22d 0941 81ce 8e40 78f4 b840 d464 8041
000000f0: b94c 8640 ec48 0441 44e4 8541 a397 3d41
4.2878265 4.7359705 14.722406 4.775036 6.654252 5.0995646 10.027288 8.204214
10.112419 10.601829 6.543346 9.772944 8.505616 5.0453076 4.51729 17.495535
12.310051 19.177134 25.630325 13.466218 12.231541 6.406225 9.810786 5.867428
11.060743 14.822157 8.395213 10.59835 4.698689 6.9406047 7.923339 3.7588985
8.711059 8.264362 15.164866 10.747243 5.1943607 13.495374 3.5478454 16.760748
5.8887544 16.152967 6.7430844 10.434124 3.6724453 16.990814 6.457588 6.755515
1.9119576 10.190109 7.603858 12.206967 13.037972 4.0477614 14.520999 5.216146
8.573671 4.462708 5.7798424 16.049232 4.1968656 8.267803 16.736458 11.849521

scale2.2.0.weight f4 [64, 64, 3, 3]
00000000: a61e 063d 012e b8bc ff20 75bd 64fb 47bc
00000010: a034 9ebd 85bc bbbd b9a3 3cbd 95c6 d7bd
00000020: 8676 00be 0506 b8bd b5c2 afbd adc6 9bbd
00000030: c060 5cbd e3f1 59bd 132c 16bd 724c 9fbd
00000040: 7086 cfbd 6331 0cbe ce59 943c c361 75bc
00000050: 4a5d 4abb 1ed1 0e3d 4fc0 ffbb 79c2 dcbb
00000060: ef28 193d beb0 e0bb d898 133b 751b 02bd
00000070: 9757 01bd b29d e7bc 80f1 64bd 4392 3cbd
00000080: 384c d6ba f53c 61bc ca19 08bc 5d73 973d
00000090: ded8 3fbc 8f5d dbbc c8b2 d4bc 6286 d0bc
000000a0: 64c0 a7bc 9315 d2bc 2667 4bbd 3f56 77bd
000000b0: a96b abbd 3dd2 98bd cbe7 e9ba d8f9 adbb
000000c0: 8611 92bd 6696 183c 5794 1f3d c5d8 95bd
000000d0: 2937 b93b 8113 203d b00d 2d3d 3387 40bb
000000e0: 588e 7ebd f61b 953c f7d6 44bc 8a57 94bd
000000f0: 3ae6 53bc b855 57bd f7c3 cfbd 2880 063d
00000100: 48e0 babc 28dd 123c cbc1 253c d553 68bd
00000110: f040 5abc 936a a0bd 3dbc 20be 0fa4 adbd
00000120: 5f14 0a3b a73e 9dbd 57ed 22ba 3256 1f3d
00000130: b991 4abd f1dd 91bb a51f 993c 4e92 93bd
00000140: 7357 803b c160 23bc a7ff a9bd 9aff aabd
00000150: 2219 153a 4059 73bd 876e 95bd fa71 bbbc
00000160: 3059 cfbd 6957 79bd 418d 64bc 266d d2bc
00000170: ed69 17bd e2cb b9bb b7cf 30bd 5313 aebd
00000180: 3c4e 17bd e124 a3bd e970 02be 0885 dc3c
00000190: f303 8e3c c9ec 9a3c 6d37 783c 21a8 fdbb
000001a0: a076 023c 99c2 163d e98f 0f3d b586 393d
000001b0: caea 87bc 776b 98bc b862 733c 27a2 95bc
000001c0: 4592 37bc a3d7 a63c badd 7abc 1a1b 4d3c
000001d0: 0c5d 7c3d 11c3 713d 21e9 a23c 066f a5bc
000001e0: 4665 8e3c a962 903b 0cbe 353b 963a 34bd
000001f0: 314a 2dbd 4f2c 9cbc 4681 303d 17b6 833d
00000200: a561 0bbd e374 a53c 7033 0e3d 59b4 02bd
00000210: f1d0 a3bc 0353 023b 1883 77bc ba68 34bd
00000220: b927 77bd 430f c7bd df28 6abc 7708 29bc
00000230: d3aa 8abd c100 34bd 6989 b1bc 30f7 6cbd
00000240: 2ede 023c 9d03 48bd 1bd7 5fbd 089a 2c3d
00000250: 0870 74bc a120 9a3b 1ffe ce3c 44a9 10bd
00000260: 8982 9cbb 464d 113d a7db bb3d 6372 9a3d
00000270: 9870 de3b 9479 ce3d ad42 e33d f68d d63b
00000280: 8510 f63d fabe 163e 0f2f 1dbd 09e9 31bd
00000290: e6f9 5dbc 5733 88bc b005 adbc 8d47 51bc
000002a0: bf76 383b bd92 8dbb fc57 19bb 09cf 293d
000002b0: d642 f73c 541e 043d afe3 923c c756 023c
000002c0: 41dd 333c 235c cb3b ac77 6c3b ab63 673b
000002d0: d243 afbc f6e6 b7bc 491f b93c 9114 78bc
000002e0: 6e3e a6bc 4741 2f3d 9483 a4bd ef1a bdbd
000002f0: 67d3 b83c 9531 bb3c ad68 0d3d 58ad 8d3d
00000300: d22f 6b3d 58a6 1d3d c646 863d c7b6 c73d
00000310: c66e 7b3d b883 7d3d 0865 513d e66b 823c
00000320: 1ce7 5cbb d816 963d c1ef 443d a867 223d
00000330: f8f4 c73d 8a2a bb3d bca8 633d 3887 603d
00000340: 880b c63c e952 9d3c bbaf 003d 8326 623d
00000350: a398 a23c 5f13 3a3d d81c ad3d d254 403d
00000360: 2a6d c2ba 278a b0bc ac75 a3bb 1e20 c8bc
00000370: 9d15 e1bc 704b 17bb 25f7 92bd c35c 9fbd
00000380: 0901 5abd cbb3 0a3d 7d1d 8cbc 07ee 52bd
00000390: 08a3 a13d 2de4 a83c 2e7e e4bc 2689 033d
000003a0: 400d 90bc 6180 91bd 0ec2 efbc 1c65 abbd
000003b0: 0453 47bd 0b73 723b b577 8ebd 0c71 84bd
000003c0: 8706 823c 49dc 84bd aa71 99bd 3e38 433d
000003d0: bd3f 403d 925b 4f3d 3a90 5bbb 3c9e 7e3c
000003e0: 1c60 413d d714 edbc 607c 61bc f2fa 0c3d
000003f0: fdda f2bc e5d3 2c3c f075 41bd 8bc8 fe3c
0.032744072 -0.022482874 -0.05984592 -0.012205932 -0.07724881 -0.091668166 -0.046054576 -0.105359234
-0.12545213 -0.08985523 -0.08582059 -0.07606254 -0.053803205 -0.053209197 -0.036663126 -0.07778253
-0.10133064 -0.13690715 0.018109228 -0.0149769215 -0.0030878359 0.0348674 -0.0078049074 -0.00673705
0.037392553 -0.006857007 0.0022521522 -0.031764466 -0.031577673 -0.028273437 -0.055894375 -0.046037924
-0.0016349619 -0.013747443 -0.00830693 0.07395051 -0.01170942 -0.02677801 -0.025964156 -0.025454704
-0.020477481 -0.025645053 -0.049658917 -0.060384985 -0.08370144 -0.07461975 -0.0017845569 -0.0053093247
-0.071322486 0.0093132015 0.038959827 -0.07316736 0.0056523276 0.0390811 0.04224938 -0.002937746
-0.06214747 0.01820181 -0.012014142 -0.07243259 -0.012933308 -0.052571982 -0.10144799 0.032837063
-0.022812024 0.008963861 0.010117005 -0.056720573 -0.013321146 -0.078328274 -0.15696807 -0.08478557
0.002106927 -0.076779656 -0.0006215176 0.03890056 -0.04945538 -0.0044515063 0.018691847 -0.0720564
0.0039166748 -0.009971798 -0.08300715 -0.083495334 0.0005687644 -0.059411287 -0.07296472 -0.022881497
-0.10124433 -0.060874376 -0.013949693 -0.025686812 -0.036966253 -0.0056700567 -0.043166842 -0.084997796
-0.036939844 -0.079660185 -0.12738384 0.026918903 0.017335868 0.018911736 0.015149933 -0.00774099
0.007962853 0.036806677 0.035049353 0.045294482 -0.016591448 -0.01860593 0.014855079 -0.018265797
-0.011204307 0.020366495 -0.015311653 0.012518669 0.061612174 0.05902392 0.019886555 -0.020194542
0.017382275 0.0044062925 0.0027731685 -0.044001184 -0.042307083 -0.019064097 0.043092035 0.06431215
-0.034028668 0.020197337 0.034717023 -0.031910274 -0.019997092 0.0019885905 -0.015106939 -0.044045188
-0.060340617 -0.09719708 -0.014291971 -0.01031696 -0.067708634 -0.04394603 -0.021671968 -0.057852924
0.007987542 -0.04883157 -0.0546485 0.042139083 -0.014919288 0.0047035967 0.025267659 -0.035317674
-0.004776303 0.035474084 0.09172755 0.07541349 0.0067883246 0.10081783 0.11096702 0.006547685
0.120148696 0.1472129 -0.038374957 -0.04343513 -0.01354835 -0.016626043 -0.021120876 -0.012773407
0.002814695 -0.004320471 -0.002339839 0.04145721 0.030183237 0.032255486 0.017930834 0.00795526
0.010978044 0.006206052 0.0036082072 0.003530721 -0.021394644 -0.022448998 0.022597926 -0.015141622
-0.02029344 0.042786863 -0.08032909 -0.09233653 0.022561742 0.022850791 0.034523655 0.06917828
0.057418652 0.038488716 0.06556468 0.09751659 0.06138494 0.061893195 0.05112174 0.01592059
-0.0033707088 0.07328576 0.04808021 0.039649636 0.09763521 0.09138973 0.05558084 0.054816455
0.02417542 0.019204574 0.03141759 0.05521251 0.019848173 0.04542863 0.08452767 0.04695589
-0.0014833559 -0.021550251 -0.004988393 -0.024429377 -0.027476126 -0.0023085736 -0.07176045 -0.07781365
-0.053223643 0.03386287 -0.017103905 -0.05149653 0.07892424 0.020616615 -0.027892198 0.032113217
-0.017584443 -0.071045645 -0.029267337 -0.083688945 -0.048663154 0.003699484 -0.06956426 -0.064668745
0.015872253 -0.064873286 -0.07492383 0.04766106 0.046935786 0.050624438 -0.0033502714 0.015540656
0.047210798 -0.028940601 -0.0137625635 0.034419008 -0.029645437 0.0105485665 -0.047231615 0.031101486

scale2.2.1.weight f4 [64]
00000000: 3c88 6f3f 146f 953f 5a56 783f bba4 5f3f
00000010: 4f2e 683f a16a 803f a09a 833f a6bb a03f
00000020: 0f88 743f eb02 923f 2611 863f f0fa 933f
00000030: 7cca 663f 93fe 703f c259 8c3f 135b 773f
00000040: 0515 6f3f fe0e 873f e889 933f b1a4 763f
00000050: 1e85 703f 595f 783f 49cf 673f ef48 823f
00000060: 3037 723f 9313 703f 0022 6b3f 836a 693f
00000070: 5d85 7b3f 7d53 573f 4a1a 653f aeb6 8a3f
00000080: 7543 963f 479d 753f 161a 673f af1b 7a3f
00000090: 8d1b 723f d307 6f3f cd70 773f 0845 7c3f
000000a0: 99b1 643f e9d0 533f dafe ab3f 3a04 7e3f
000000b0: 3239 773f 4639 723f 70ab 633f 5164 6e3f
000000c0: 84b5 633f 30f0 623f 0d70 7e3f 5ef2 5f3f
000000d0: d5d8 673f cb24 593f b38f 843f d4b0 863f
000000e0: 517d 603f 7f42 6f3f a674 583f de44 6a3f
000000f0: 1c86 7a3f a13c 7a3f b836 733f 9aac 6a3f
0.9356725 1.1674523 0.9700676 0.87360734 0.9069566 1.003254 1.0281563 1.2557266
0.9552011 1.140714 1.0473983 1.1560955 0.90152717 0.9413845 1.0964892 0.96623343
0.9339145 1.055145 1.1526461 0.9634505 0.9395312 0.9702049 0.9055067 1.0178508
0.9461546 0.9377987 0.91848755 0.9117815 0.9825037 0.8411177 0.8949324 1.0837
1.1739336 0.9594311 0.9027418 0.9769849 0.9457329 0.93371314 0.96656495 0.98542833
0.8933349 0.82740647 1.343715 0.992252 0.9657165 0.9461864 0.8893347 0.9312182
0.88948846 0.8864775 0.99389726 0.874792 0.90565234 0.84821767 1.0356354 1.0522714
0.8769122 0.9346084 0.8455299 0.91511333 0.97860885 0.9774876 0.9500537 0.9166962

scale2.2.1.bias f4 [64]
00000000: b3fb f73c 2638 3d3e 23f9 7a3d d036 79bd
00000010: b542 2cbd 98f0 073d 2e9f 063d a35f b83d
00000020: 5c8d e33c f35f c3bb 8650 0a3d 3042 1bbe
00000030: d1c0 4c3c 6034 db3d 4ed3 8c3d 0f5d 263d
00000040: 6a1d 43bd 8bc3 cc3c 6662 acbd de35 ad3d
00000050: d84a 01bd cf6d 06bd 4654 ff3c d98b bb3d
00000060: ad8a a83d b9fc 263b 1bcd 5a3b 2c9b b53d
00000070: 3c1b d03d 382f babd 26af 083d 1834 ac3c
00000080: 3814 c63c d01a 843e eb4f e9bb 60d5 363e
00000090: 2257 adbd 3cc7 ad3d b201 61bd 9d47 bd3c
000000a0: 603c 32bd 2d23 ccbd 3d82 0e3d cdba 15bd
000000b0: 6419 703d a4d5 49b8 705f 16be 6338 ca3d
000000c0: 2ac3 d3b9 020c 67bd 3803 1bbd bad2 61bd
000000d0: ee8f 753c 432f 82bd 963a 073e 390a febc
000000e0: 4baf b33d 953b 1dbd 1c65 01bd bb3c 4b3d
000000f0: 08c1 cdbb fac8 8d3d 7314 853d fe15 97bc
0.030271387 0.1847845 0.06127275 -0.06084329 -0.042055804 0.033188432 0.03286665 0.09002616
0.027777366 -0.005962366 0.0337682 -0.15161967 0.012497143 0.10703349 0.06876241 0.04061609
-0.047635473 0.024995586 -0.084172055 0.0845754 -0.031565517 -0.032819565 0.031168114 0.09157533
0.08229575 0.0025480224 0.0033386413 0.08867487 0.101614445 -0.090910375 0.03337016 0.021020934
0.024179563 0.25801706 -0.0071201227 0.17854834 -0.08463885 0.084852666 -0.054933257 0.023105437
-0.04351461 -0.09967647 0.034792174 -0.0365551 0.058617964 -4.8121103e-05 -0.14684844 0.09874036
-0.00040390465 -0.056407936 -0.037844867 -0.055132605 0.014987929 -0.06356671 0.13205943 -0.031010734
0.08773669 -0.0383869 -0.031590566 0.049618464 -0.0062791146 0.06923099 0.06498041 -0.018443104

scale2.2.1.running_mean f4 [64]
00000000: 00b6 28c0 4fd7 96be 097e 57c0 19e9 1bc0
00000010: e3e5 f7bf a423 9cbf 1c59 c1bf 1d75 bd3e
00000020: 1749 a2c0 7382 4b3c d71d 05c0 49f4 bc3e
00000030: d8a4 2c40 f6ce a6be d9bd eabe 2cbc a73f
00000040: 1774 b9c0 2454 6f3f 2171 9ebf 8780 98c0
00000050: da8c 84bf 9cb6 8640 a1f1 e6bf de0b e6be
00000060: d637 9cbf c24f 0ec0 35c6 a1be 8ab3 1bc0
00000070: 9e16 a03f 78d2 19c0 20fc f7bf 3046 5cbf
00000080: 6861 2ebe 8e7e 13c0 6ac1 adbe cd20 4cc0
00000090: 8b30 70c0 3e20 66c0 7f36 4840 c95b 0ec0
000000a0: 1b02 3cc0 25b3 debf b6da 8f3e 87b5 52c0
000000b0: 8450 20bf af9d 84bf cc43 73c0 ee8d 10c0
000000c0: dae9 73c0 9cba 19c0 b6b4 45c0 b514 6cbf
000000d0: 5199 e0be 197d 8ac0 a42e e2bf 435c bcbe
000000e0: 1614 99c0 1acd 7b40 f2a9 1bc0 cf59 7bbf
000000f0: ac26 d3bf 1a90 56c0 3185 a6c0 d250 91c0
-2.6361084 -0.29461142 -3.3670676 -2.4361022 -1.9367031 -1.2198377 -1.5105319 0.37003413
-5.071422 0.012421238 -2.0799463 0.36905125 2.6975613 -0.32579774 -0.45847967 1.31043
-5.795421 0.93487763 -1.2378274 -4.7656894 -1.0355484 4.209791 -1.8042489 -0.4493093
-1.220454 -2.223618 -0.31596532 -2.4328332 1.2506902 -2.403471 -1.9373817 -0.860446
-0.17029345 -2.3045993 -0.33936626 -3.189502 -3.7529628 -3.595718 3.1283262 -2.2243521
-2.9376285 -1.739842 0.2809655 -3.2923295 -0.6262286 -1.0360621 -3.801013 -2.2586627
-3.8111482 -2.4020147 -3.0891547 -0.92219096 -0.4386697 -4.3277707 -1.7670484 -0.3678914
-4.783702 3.9343934 -2.4322476 -0.9818391 -1.6496177 -3.3525453 -5.2037587 -4.5411158

scale2.2.1.running_var f4 [64]
00000000: 14b3 fc40 4035 0a40 5ef0 6f40 b56a f540
00000010: 0612 b140 30a4 7940 e1ca 3e40 1f5c 0640
00000020: d008 8141 d347 0a40 7053 4d40 feff df3f
00000030: ed23 f140 b20d 4f41 f5de 2d40 36ed 4640
00000040: ce01 8041 53fa 2840 5a51 d93f bb93 4441
00000050: 756b 9540 abb2 9141 1293 0741 6269 d940
00000060: 64a5 7c40 b0c4 0441 12a5 1841 600f 5e40
00000070: cebe 9740 9b0a 0c41 9feb e440 d982 1b40
00000080: c685 0a40 e665 ad40 c462 e940 0840 e440
00000090: 90a6 3b40 0822 dd40 cd61 a340 f600 5040
000000a0: a992 1841 01d3 0141 aca6 dc3f 6e79 2b40
000000b0: 3879 2140 8daa f440 b50a b340 8163 f440
000000c0: 2afa df40 0698 4840 f9e5 9140 4909 a540
000000d0: 1ca8 9940 21e4 c340 bf5f 0840 2819 da3f
000000e0: f26f 4a41 8f9d 7e41 8884 7541 1556 cd40
000000f0: f722 0541 fe50 ac40 778f 9f41 fccf 1f41
7.89686 2.1595001 3.7490458 7.6692758 5.53345 3.9006462 2.9811327 2.0993726
16.129303 2.1606338 3.2082176 1.7499998 7.5356355 12.940844 2.7167332 3.1082282
16.000881 2.6402786 1.6977952 12.286067 4.6693673 18.21224 8.473406 6.794114
3.9475946 8.298019 9.5403 3.4696884 4.7420416 8.752589 7.1537623 2.4298613
2.164415 5.418689 7.2933064 7.1328163 2.9320412 6.910404 5.1056886 3.2500587
9.535806 8.114015 1.7238364 2.6792865 2.5230236 7.645819 5.595057 7.6371465
6.9992876 3.1342788 4.559323 5.1573834 4.801771 6.121598 2.1308439 1.7038927
12.65233 15.913466 15.344856 6.416758 8.321036 5.3848867 19.945051 9.988277
